…
        ])

    def forward(self, x, mask = None):
        B = x.size(0)
        if mask is not None:
            mask = mask[None, None, :, :] # esto no se si est치 bien :S
        x = self.cross_attn(
            kv=x,
            q=self.latents.repeat(B, 1, 1),
            mask=mask
        )
        for _ in range(self.num_blocks):
            for self_attn_layer in self.self_attention_blocks:
                x = self_attn_layer(x, x)
        return x


model = Perceiver(num_latents=128, latent_dim=512, input_dim=3, num_blocks=2, n_heads=2)

model

Perceiver(
  (cross_attn): Block(
    (ln1_kv): LayerNorm((3,), eps=1e-05, elementwise_affine=True)
    (ln1_q): LayerNorm((512,), eps=1e-05, elementwise_affine=True)
    (ln2): LayerNorm((512,), eps=1e-05, elementwise_affine=True)
    (attn): MultiHeadAttention(
      (key): Linear(in_features=3, out_features=512, bias=True)
      (query): Linear(in_features=512, out_features=512, bias=True)
      (value): Linear(in_features=3, out_features=512, bias=True)
      (attn_drop): Dropout(p=0.0, inplace=False)
      (resid_drop): Dropout(p=0.0, inplace=False)
      (proj): Linear(in_features=512, out_features=512, bias=True)
    )
    (mlp): Sequential(
      (0): Linear(in_features=512, out_features=2048, bias=True)
      (1): GELU()
      (2): Linear(in_features=2048, out_features=512, bias=True)
      (3): Dropout(p=0.0, inplace=False)
    )
  )
  (self_attention_blocks): ModuleList(
    (0): Block(
      (ln1_kv): LayerNorm((512,), eps=1e-05, elementwise_affine=True)
      (ln1_q): LayerNorm((512,), eps=1e-05, elementwise_affine=True)
      (ln2): LayerNorm((512,), eps=1e-05, elementwise_affine=True)
      (attn): MultiHeadAttention(
        (key): Linear(in_features=512, out_features=512, bias=True)
        (query): Linear(in_features=512, out_features=512, bias=True)
        (value): Linear(in_features=512, out_features=512, bias=True)
        (attn_drop): Dropout(p=0.0, inplace=False)
        (resid_drop): Dropout(p=0.0, inplace=False)
        (proj): Linear(in_features=512, out_features=512, bias=True)
      )
      (mlp): Sequential(
        (0): Linear(in_features=512, out_features=2048, bias=True)
        (1): GELU()
        (2): Linear(in_features=2048, out_features=512, bias=True)
        (3): Dropout(p=0.0, inplace=False)
      )
    )
    (1): Block(
      (ln1_kv): LayerNorm((512,), eps=1e-05, elementwise_affine=True)
      (ln1_q): LayerNorm((512,), eps=1e-05, elementwise_affine=True)
      (ln2): LayerNorm((512,), eps=1e-05, elementwise_affine=True)
      (attn): MultiHeadAttention(
        (key): Linear(in_features=512, out_features=512, bias=True)
        (query): Linear(in_features=512, out_features=512, bias=True)
        (value): Linear(in_features=512, out_features=512, bias=True)
        (attn_drop): Dropout(p=0.0, inplace=False)
        (resid_drop): Dropout(p=0.0, inplace=False)
        (proj): Linear(in_features=512, out_features=512, bias=True)
      )
      (mlp): Sequential(
        (0): Linear(in_features=512, out_features=2048, bias=True)
        (1): GELU()
        (2): Linear(in_features=2048, out_features=512, bias=True)
        (3): Dropout(p=0.0, inplace=False)
      )
    )
  )
)

outputs = model(torch.randn((32, 28*28, 3))) # B, num pixels (num patches en vit), num channels (n_embed en vit)

outputs.shape

torch.Size([32, 128, 512])

Clasificaci칩n de im치genes
Vamos a entrenar un clasificador de im치genes usando la arquitectura Perceiver. Para ello, usaremos el dataset CIFAR10.
…
