…
git clone https://github.com/karpathy/minGPT.git
Puedes jugar con el tama침os de la entrada (el n칰mero de token a usar), el n칰mero de capas, cabezas por capa y dimensi칩n interna de las capas de atenci칩n. Nuestro modelo recibir치 a la entrada un batch de trozos de c칩digo y nos dar치 a la salida un distribuci칩n de probabilidad sobre el vocabulario, d칩nde el valor m치s alto corresponder치 a aquella palabra que el modelo cree que ir치 a continuaci칩n.
from minGPT.mingpt.model import GPT, GPTConfig

mconf = GPTConfig(tokenizer.vocab_size, block_size=512, n_layer=8, n_head=8, n_embd=512)
model = GPT(mconf)

model

GPT(
  (tok_emb): Embedding(30522, 512)
  (drop): Dropout(p=0.1, inplace=False)
  (blocks): Sequential(
    (0): Block(
      (ln1): LayerNorm((512,), eps=1e-05, elementwise_affine=True)
      (ln2): LayerNorm((512,), eps=1e-05, elementwise_affine=True)
      (attn): CausalSelfAttention(
        (key): Linear(in_features=512, out_features=512, bias=True)
        (query): Linear(in_features=512, out_features=512, bias=True)
        (value): Linear(in_features=512, out_features=512, bias=True)
        (attn_drop): Dropout(p=0.1, inplace=False)
        (resid_drop): Dropout(p=0.1, inplace=False)
        (proj): Linear(in_features=512, out_features=512, bias=True)
      )
      (mlp): Sequential(
        (0): Linear(in_features=512, out_features=2048, bias=True)
        (1): GELU()
        (2): Linear(in_features=2048, out_features=512, bias=True)
        (3): Dropout(p=0.1, inplace=False)
      )
    )
    (1): Block(
      (ln1): LayerNorm((512,), eps=1e-05, elementwise_affine=True)
      (ln2): LayerNorm((512,), eps=1e-05, elementwise_affine=True)
      (attn): CausalSelfAttention(
        (key): Linear(in_features=512, out_features=512, bias=True)
        (query): Linear(in_features=512, out_features=512, bias=True)
        (value): Linear(in_features=512, out_features=512, bias=True)
        (attn_drop): Dropout(p=0.1, inplace=False)
        (resid_drop): Dropout(p=0.1, inplace=False)
        (proj): Linear(in_features=512, out_features=512, bias=True)
      )
      (mlp): Sequential(
        (0): Linear(in_features=512, out_features=2048, bias=True)
        (1): GELU()
        (2): Linear(in_features=2048, out_features=512, bias=True)
        (3): Dropout(p=0.1, inplace=False)
      )
    )
    (2): Block(
      (ln1): LayerNorm((512,), eps=1e-05, elementwise_affine=True)
      (ln2): LayerNorm((512,), eps=1e-05, elementwise_affine=True)
      (attn): CausalSelfAttention(
        (key): Linear(in_features=512, out_features=512, bias=True)
        (query): Linear(in_features=512, out_features=512, bias=True)
        (value): Linear(in_features=512, out_features=512, bias=True)
        (attn_drop): Dropout(p=0.1, inplace=False)
        (resid_drop): Dropout(p=0.1, inplace=False)
        (proj): Linear(in_features=512, out_features=512, bias=True)
      )
      (mlp): Sequential(
        (0): Linear(in_features=512, out_features=2048, bias=True)
        (1): GELU()
        (2): Linear(in_features=2048, out_features=512, bias=True)
        (3): Dropout(p=0.1, inplace=False)
      )
    )
    (3): Block(
      (ln1): LayerNorm((512,), eps=1e-05, elementwise_affine=True)
      (ln2): LayerNorm((512,), eps=1e-05, elementwise_affine=True)
      (attn): CausalSelfAttention(
        (key): Linear(in_features=512, out_features=512, bias=True)
        (query): Linear(in_features=512, out_features=512, bias=True)
        (value): Linear(in_features=512, out_features=512, bias=True)
        (attn_drop): Dropout(p=0.1, inplace=False)
        (resid_drop): Dropout(p=0.1, inplace=False)
        (proj): Linear(in_features=512, out_features=512, bias=True)
      )
      (mlp): Sequential(
        (0): Linear(in_features=512, out_features=2048, bias=True)
        (1): GELU()
        (2): Linear(in_features=2048, out_features=512, bias=True)
        (3): Dropout(p=0.1, inplace=False)
      )
    )
    (4): Block(
      (ln1): LayerNorm((512,), eps=1e-05, elementwise_affine=True)
      (ln2): LayerNorm((512,), eps=1e-05, elementwise_affine=True)
      (attn): CausalSelfAttention(
        (key): Linear(in_features=512, out_features=512, bias=True)
        (query): Linear(in_features=512, out_features=512, bias=True)
        (value): Linear(in_features=512, out_features=512, bias=True)
        (attn_drop): Dropout(p=0.1, inplace=False)
        (resid_drop): Dropout(p=0.1, inplace=False)
        (proj): Linear(in_features=512, out_features=512, bias=True)
      )
      (mlp): Sequential(
        (0): Linear(in_features=512, out_features=2048, bias=True)
        (1): GELU()
        (2): Linear(in_features=2048, out_features=512, bias=True)
        (3): Dropout(p=0.1, inplace=False)
      )
    )
    (5): Block(
      (ln1): LayerNorm((512,), eps=1e-05, elementwise_affine=True)
      (ln2): LayerNorm((512,), eps=1e-05, elementwise_affine=True)
      (attn): CausalSelfAttention(
        (key): Linear(in_features=512, out_features=512, bias=True)
        (query): Linear(in_features=512, out_features=512, bias=True)
        (value): Linear(in_features=512, out_features=512, bias=True)
        (attn_drop): Dropout(p=0.1, inplace=False)
        (resid_drop): Dropout(p=0.1, inplace=False)
        (proj): Linear(in_features=512, out_features=512, bias=True)
      )
      (mlp): Sequential(
        (0): Linear(in_features=512, out_features=2048, bias=True)
        (1): GELU()
        (2): Linear(in_features=2048, out_features=512, bias=True)
        (3): Dropout(p=0.1, inplace=False)
      )
    )
    (6): Block(
      (ln1): LayerNorm((512,), eps=1e-05, elementwise_affine=True)
      (ln2): LayerNorm((512,), eps=1e-05, elementwise_affine=True)
      (attn): CausalSelfAttention(
        (key): Linear(in_features=512, out_features=512, bias=True)
        (query): Linear(in_features=512, out_features=512, bias=True)
        (value): Linear(in_features=512, out_features=512, bias=True)
        (attn_drop): Dropout(p=0.1, inplace=False)
        (resid_drop): Dropout(p=0.1, inplace=False)
        (proj): Linear(in_features=512, out_features=512, bias=True)
      )
      (mlp): Sequential(
        (0): Linear(in_features=512, out_features=2048, bias=True)
        (1): GELU()
        (2): Linear(in_features=2048, out_features=512, bias=True)
        (3): Dropout(p=0.1, inplace=False)
      )
    )
    (7): Block(
      (ln1): LayerNorm((512,), eps=1e-05, elementwise_affine=True)
      (ln2): LayerNorm((512,), eps=1e-05, elementwise_affine=True)
      (attn): CausalSelfAttention(
        (key): Linear(in_features=512, out_features=512, bias=True)
        (query): Linear(in_features=512, out_features=512, bias=True)
        (value): Linear(in_features=512, out_features=512, bias=True)
        (attn_drop): Dropout(p=0.1, inplace=False)
        (resid_drop): Dropout(p=0.1, inplace=False)
        (proj): Linear(in_features=512, out_features=512, bias=True)
      )
      (mlp): Sequential(
        (0): Linear(in_features=512, out_features=2048, bias=True)
        (1): GELU()
        (2): Linear(in_features=2048, out_features=512, bias=True)
        (3): Dropout(p=0.1, inplace=False)
      )
    )
  )
  (ln_f): LayerNorm((512,), eps=1e-05, elementwise_affine=True)
  (head): Linear(in_features=512, out_features=30522, bias=False)
)

import torch

x = torch.tensor([indexes]).long()
output, _ = model(x)
output.shape

torch.Size([1, 11, 30522])

GPT implementa un tipo de mecanismo de atenci칩n causal, esto significa que cada palabra solo puede atender a las palabras anteriores. De esta manera evitamos que el modelo sea capaz de ver en el futuro durante el entrenamiento. En fase de inferencia, tendremos que predecir palabra a palabra, usando las predicciones como nuevos inputs para seguir prediciendo.
…
